model/model_00.pkl (torch_old, 374937 bytes, 10 tensors)

weight f4 [64, 3, 5, 5]
0	0xbcc7417f	-0.024323223
1	0x3a66e3cb	0.00088077475
2	0xbe410b6d	-0.18852015
3	0xbe50ff87	-0.20409976
4	0x3e33943e	0.17537019
5	0x3dadd217	0.08487337
6	0xbb0d1853	-0.002152939
7	0x3da2d086	0.07949929
8	0xbda46ad8	-0.08028191
9	0xbe334f1f	-0.17510651
10	0xbd903637	-0.07041591
11	0xbe004776	-0.1252726
12	0x3e49c4d6	0.19703993
13	0x3e7fde40	0.24987125
14	0xbee0a620	-0.43876743
15	0x3d9967ee	0.07490526
16	0x3e459f60	0.19299078
17	0xbee6315f	-0.44959542
18	0xbdd48849	-0.10377557
19	0x3eb1813e	0.34668916
20	0xbb7ee798	-0.0038895365
21	0xbdcd8b62	-0.10036351
22	0x3eb50aca	0.35359794
23	0xbde471fe	-0.11154555
24	0xbb68beaf	-0.0035514047
25	0xbd056af7	-0.032572713
26	0x3e04f80b	0.12985246
27	0x3dab0d61	0.08352161
28	0xbd35e056	-0.044403397
29	0x3e035ade	0.12827632
30	0xbca4504d	-0.020057822
31	0xbdc82214	-0.09772125
32	0x3dc596b5	0.09647886
33	0x3d4291da	0.047502376
34	0x3dac5c2b	0.08416017
35	0xbd64e765	-0.055884738
36	0xbe0e333b	-0.1388673
37	0x3d97f06a	0.07418902
38	0x3ed75c0e	0.4206242
39	0xbe790f8b	-0.24322335
40	0xbd985c80	-0.07439518
41	0x3ea0c57d	0.31400672
42	0xbec629fc	-0.38703907
43	0xbe77a5a8	-0.24184287
44	0x3ebe7205	0.37196365
45	0x3d6a83ec	0.057254717
46	0xbe154e0d	-0.14580555
47	0x3e98b618	0.29826427
48	0xbe20584f	-0.15658687
49	0xbdb6c65d	-0.089245535
50	0xbc61bb78	-0.013777606
51	0x3c394649	0.011308261
52	0xbe27de32	-0.16393355
53	0xbc07cfff	-0.008289336
54	0x3e005b91	0.1253493
55	0x3e27d29c	0.16388935
56	0xbdf60969	-0.120135136
57	0xbb86c2cd	-0.0041125775
58	0xba88609a	-0.0010404766
59	0xbd40e742	-0.047095545
60	0x3c85267f	0.016253708
61	0xbe1a6669	-0.15078129
62	0x3e2e300e	0.17010519
63	0x3e4202e2	0.18946412
64	0xbe9e74dc	-0.30948532
65	0xbcf30131	-0.029663654
66	0x3e9f816a	0.31153423
67	0xbe994a09	-0.29939297
68	0xbe85bd36	-0.2612092
69	0x3eba6cd9	0.3641117
70	0xbd09d4d2	-0.033650227
71	0xbdf44581	-0.11927319
72	0x3e9595db	0.29215893
73	0xbe252d64	-0.16130596
74	0xbdba8f5a	-0.091093734
75	0x3d2647f6	0.04059597
76	0x3c09eb09	0.008417853
77	0xbd98220e	-0.074283704
78	0x3d6262a2	0.055269845
79	0xbd0f9f96	-0.035064302
80	0xbce49f47	-0.02790798
81	0x3ddb747a	0.107155755
82	0x3e36c5e7	0.17848931
83	0x3e09ba05	0.13449867
84	0x3cf6eb48	0.030141488
85	0xbd6594e9	-0.056050215
86	0xbe718250	-0.23584867
87	0xbe3c907d	-0.18414493
88	0xbe6b0f05	-0.22954948
89	0xbddabae4	-0.10680178
90	0x3de622f1	0.11237133
91	0x3e533ead	0.20629378
92	0x3eb20e00	0.34776306
93	0x3e6e4659	0.23269023
94	0x3dcfd799	0.10148544
95	0xbe25772c	-0.16158742
96	0xbe270c8c	-0.1631338
97	0xbd600d8a	-0.05470041
98	0xbe3c7948	-0.1840564
99	0xbe291295	-0.16510995
100	0xbe19736e	-0.14985439
101	0xbdc459c0	-0.09587431
102	0xbcb9140a	-0.022592563
103	0xbda54857	-0.08070438
104	0xbdafc61e	-0.0858271
105	0x3cb3b12f	0.021935074
106	0x3d7b3f6e	0.06133979
107	0x3e6ecd31	0.23320462
108	0x3df71775	0.12065021
109	0x3c78cb80	0.015185237
110	0xbd790c4b	-0.06080274
111	0xbe687b62	-0.22703317
112	0xbeee9993	-0.46601543
113	0xbec6fb02	-0.3886338
114	0xbe1777e6	-0.14791831
115	0x3e4778d1	0.19479682
116	0x3e564bf4	0.20927411
117	0x3ef44f52	0.47716767
118	0x3ed3c264	0.41359246
119	0x3e992f6e	0.29918998
120	0xbd53d86d	-0.05172007
121	0xbcfa28ba	-0.030536998
122	0xbe3a90de	-0.18219325
123	0xbd1229ea	-0.035684504
124	0x3c87b856	0.01656739
125	0x3e16a87c	0.14712709
126	0x3c90ea9b	0.017689994
127	0xbd93b525	-0.07212285
128	0xbd4c5b85	-0.049891967
129	0x3e15a77f	0.14614676
130	0x3d66ff37	0.056395736
131	0x3e423a94	0.18967658
132	0x3e60d40a	0.21955886
133	0x3e3cfc0f	0.18455528
134	0x3d9f82b6	0.07788603
135	0xbe673176	-0.22577462
136	0xbe9a5787	-0.30144903
137	0xbf01f7df	-0.50768846
138	0xbe9e64f9	-0.3093641
139	0xbe49b4b9	-0.19697846
140	0x3df0ce12	0.11758055
141	0x3eb4ddca	0.35325462
142	0x3e8fdb32	0.2809692
143	0x3e71f4d8	0.23628557
144	0x3da9c243	0.082890056
145	0xbbf310cd	-0.0074177743
146	0xbdddf56b	-0.108378254
147	0xbe423bad	-0.18968077
148	0xbe03cd1c	-0.12871212
149	0xbd3a551f	-0.045491334
150	0xbc0a7c95	-0.008452554
151	0x3e3e04bf	0.18556498
152	0xbe873d15	-0.2641379
153	0x3d380900	0.044930458
154	0x3d3aedff	0.045637127
155	0xbde14050	-0.10998595
156	0x3ec7d46a	0.39029247
157	0xbf09252b	-0.5357234
158	0x3eaed160	0.34144115
159	0xbd83c769	-0.06434519
160	0xbe0c3867	-0.13693391
161	0x3ef50336	0.47854012
162	0xbf40317b	-0.750755
163	0x3ee893ca	0.45425254
164	0xbdc0d224	-0.09415081
165	0xbdfbf306	-0.123022124
166	0x3f04223f	0.51614755
167	0xbf23c628	-0.6397424
168	0x3e95e576	0.29276627
169	0xbd015dfa	-0.031583764
170	0xbba35d77	-0.004985507
171	0x3e58b5e4	0.21163136
172	0xbebf915f	-0.37415597
173	0x3e06fefe	0.1318321
174	0x3d4eb788	0.050467998
175	0x3d5bb936	0.053643428
176	0x3d741361	0.059588794
177	0xbebbd22c	-0.36683786
178	0x3e275092	0.16339329
179	0x3ce989db	0.028508117
180	0xbd985fa4	-0.07440117
181	0x3ed0f4de	0.4081182
182	0xbf19e31c	-0.60112166
183	0x3eac1bb9	0.336149
184	0xbd73cf42	-0.05952383
185	0xbe4e3cae	-0.20140335
186	0x3f279be7	0.65472263
187	0xbf4eedcf	-0.8083162
188	0x3f19547d	0.59894544
189	0xbe1813a7	-0.14851247
190	0xbdef1e7c	-0.11675736
191	0x3ee8ddf4	0.45481837
192	0xbf35bbfc	-0.70989966
193	0x3f099a74	0.537513
194	0xbe2d9437	-0.1695107
195	0xbd0bea01	-0.03415871
196	0x3e76c817	0.24099766
197	0xbebd313b	-0.36951622
198	0x3e61dc9d	0.22056814
199	0xbd0cc167	-0.03436413
200	0xbd89167f	-0.06693744
201	0x3dcc8f11	0.09988225
202	0xbcddf154	-0.027092613
203	0x3df1f421	0.11814142
204	0xbd879e15	-0.06621949
205	0xbe077c87	-0.13231097
206	0x3e7d77fb	0.247528
207	0xbea302de	-0.31838125
208	0x3ecf9165	0.40540615
209	0xbe4966aa	-0.1966807
210	0xbe5fc99c	-0.21854252
211	0x3ee0fcf3	0.43942985
212	0xbf09f9e3	-0.5389692
213	0x3f103e20	0.56344795
214	0xbe99b4cc	-0.3002075
215	0xbe1e5c1a	-0.15464821
216	0x3e9c7823	0.30560407
217	0xbeb68fb8	-0.35656524
218	0x3edbda1a	0.42939836
219	0xbe5499dd	-0.20761819
220	0xbd378184	-0.04480125
221	0x3dbec5ee	0.09315096
222	0xbe4b2ca4	-0.19841248
223	0x3e67c8bc	0.22635168
224	0xbe0d19c4	-0.1377936
225	0x3c25af3c	0.01011258
226	0xbe2b2ebc	-0.16717046
227	0xbe3d6d19	-0.18498649
228	0xbe0af8d6	-0.13571486
229	0x3d0476ce	0.032339863
230	0x3dff5fa6	0.12469415
231	0x3c2e1775	0.01062571
232	0xbc72d11b	-0.014820362
233	0xbc186218	-0.009300731
234	0xbe04bac3	-0.12961869
235	0x3e112d43	0.14177422
236	0xbcb7b8cd	-0.022426987
237	0xbe3cd393	-0.18440084
238	0xbdbb497e	-0.09144877
239	0x3ca049c7	0.01956643
240	0x3dcaab71	0.09895981
241	0x3e17b9a0	0.14816904
242	0x3c13860d	0.009004128
243	0x3db16fa8	0.08663875
244	0x3e02142d	0.12703009
245	0xbd7c0960	-0.06153238
246	0xbe267259	-0.16254558
247	0x3e468b89	0.19389166
248	0x3d0d6bed	0.034526754
249	0xbddfc029	-0.109253235
250	0xbc925248	-0.0178615
251	0x3d545adc	0.051844463
252	0x3e487f24	0.1957975
253	0x3df1daef	0.118093364
254	0x3d8ff110	0.07028401
255	0x3d40c01b	0.047058206

bias f4 [64]
0	0x3caf30bf	0.021385549
1	0xbdd33fb1	-0.103148825
2	0xbe0ba956	-0.13638815
3	0xbf2e14d7	-0.6800055
4	0xbe6e7664	-0.2328735
5	0xbf00a6aa	-0.5025431
6	0xbec02ae5	-0.37532726
7	0xbf2225d6	-0.63338983
8	0xbe77e4d0	-0.24208379
9	0xbe3d1023	-0.18463187
10	0xbe21f4a5	-0.1581598
11	0xbd3fda24	-0.046838894
12	0xbf396956	-0.72426355
13	0xbd9bd1cd	-0.07608376
14	0xbeaf27f0	-0.34210157
15	0xbf2d32c7	-0.67655605
16	0x3e2a446a	0.1662766
17	0xbe8a2042	-0.26977736
18	0xbe92f145	-0.286997
19	0xbedf3907	-0.43598196
20	0xbed0eb3c	-0.4080447
21	0xbe11aab4	-0.14225274
22	0xbea87bba	-0.32906896
23	0xbebeb39b	-0.37246403
24	0xbdafcb18	-0.08583659
25	0xbebb50c1	-0.36585048
26	0xbe58f117	-0.21185718
27	0x3e5ce11d	0.21570249
28	0xbe09e848	-0.13467515
29	0xbeda24b0	-0.42606115
30	0xbf05374a	-0.5203749
31	0xbdd10f28	-0.10207969
32	0xbf2ce7e3	-0.6754133
33	0xbdf07aa3	-0.11742141
34	0xbf6ce3ee	-0.92535293
35	0x3eaf5fd2	0.34252793
36	0xbf304bce	-0.6886567
37	0xbe9fca36	-0.31208962
38	0xbe3ac3b6	-0.1823872
39	0xbdda8570	-0.106699824
40	0xbe31e6a5	-0.1737314
41	0xbe10a813	-0.14126615
42	0xbed903d9	-0.42385748
43	0x3edbdf87	0.42943975
44	0xbf3dc808	-0.7413335
45	0xbedad48a	-0.4274028
46	0xbf0ffc0b	-0.5624396
47	0xbdeaecd6	-0.11470954
48	0xbf3ed0bd	-0.7453726
49	0xbeee2fd5	-0.46520868
50	0xbe0a7590	-0.13521409
51	0xbe78bdee	-0.24291202
52	0xbee52d99	-0.4476135
53	0x3e06d9cd	0.13169022
54	0xbe78e42f	-0.24305795
55	0x3dd13d2b	0.10216745
56	0xbdebd62d	-0.1151546
57	0xbe6fbf24	-0.23412758
58	0xbe92e669	-0.28691414
59	0xbe7db134	-0.24774629
60	0xbea08502	-0.31351477
61	0x3dcbdd8d	0.09954367
62	0xbe186fd1	-0.14886405
63	0xbf02d91c	-0.5111253

weight f4 [16, 64, 5, 5]
0	0xb971db63	-0.00023065279
1	0x3cde75fb	0.027155867
2	0x3c047117	0.008083603
3	0xbd3e6578	-0.046483487
4	0xbd471fd5	-0.04861434
5	0xbd0576ff	-0.032584187
6	0x3c9b3169	0.018944459
7	0x3cbf591c	0.02335792
8	0xbd744273	-0.059633683
9	0xbcceabbc	-0.025228374
10	0x3bea2774	0.0071458165
11	0x3d443012	0.047897406
12	0x3d9b3243	0.07577946
13	0x3d752278	0.059847325
14	0x3db27f30	0.08715665
15	0xbd069eef	-0.032866415
16	0xbcbd36af	-0.023097364
17	0x3cb60432	0.022218797
18	0xbc34663a	-0.011010701
19	0x3d9d61b3	0.0768465
20	0xbd2e526a	-0.042559065
21	0xbd8d1ce5	-0.06890277
22	0xbd5c2508	-0.053746253
23	0xbd70cc7c	-0.05878876
24	0x3d29dbbd	0.041469324
25	0x3ac22058	0.0014810665
26	0x3ad53bae	0.0016268396
27	0xbc643985	-0.013929729
28	0x3c9be10c	0.01902821
29	0x3d637597	0.055532064
30	0x3dd14dea	0.10219939
31	0x3dd51596	0.10404508
32	0x3d9a9be2	0.075492635
33	0x3d6c290c	0.057656333
34	0x3de41cc4	0.11138299
35	0x3e04d5c6	0.12972173
36	0x3e12b3b8	0.1432637
37	0x3dddb163	0.108248495
38	0x3dc91ace	0.09819566
39	0x3e132e97	0.14373241
40	0x3d98d0bc	0.07461688
41	0x3ddf6e3a	0.10909696
42	0x3dd61b86	0.104544684
43	0x3d9c9380	0.07645321
44	0x3e06036d	0.13087244
45	0x3d112c4a	0.035442628
46	0x3d4e4fc9	0.050369058
47	0x3ce5a0e3	0.028030818
48	0x3ced4c84	0.02896715
49	0x3dd3e36d	0.103461124
50	0x3c426f14	0.011867303
51	0xbc3d35fb	-0.0115485145
52	0xbc45867b	-0.012055988
53	0x3b91860c	0.0044410285
54	0xbcd15674	-0.02555392
55	0xbd1af8d2	-0.03783495
56	0xbd0c32b0	-0.034228027
57	0xbd21bc53	-0.03948624
58	0xbcead1e2	-0.028664533
59	0xbcbb6600	-0.022875786
60	0xbd2eb7d7	-0.042655792
61	0xbd45b2b8	-0.048266143
62	0x39da7bbe	0.00041672395
63	0xbd118e2a	-0.03553597
64	0xbd003411	-0.031299654
65	0xbcd0dfc6	-0.025497328
66	0xbcff9e13	-0.031203305
67	0xbcd2652d	-0.02568301
68	0xbc318360	-0.010834545
69	0xbd01ddcf	-0.031705674
70	0x3d4a4c2b	0.049389046
71	0x3d8cc5a2	0.06873633
72	0x3de70030	0.11279333
73	0x3d992e65	0.07479552
74	0x3d3944eb	0.04523174
75	0x3c43b7e3	0.0119456975
76	0x3d31fd30	0.04345435
77	0x3bc07b80	0.0058740973
78	0x3cb85831	0.02250299
79	0x3d1c794b	0.03820161
80	0xbccf7496	-0.025324147
81	0xbb0b432a	-0.002124975
82	0xbcf73d8e	-0.030180719
83	0xbb68a041	-0.003549591
84	0xbd525dda	-0.051359035
85	0xbcde96ee	-0.027171578
86	0xbd459c18	-0.048244566
87	0xbd898b4a	-0.067160204
88	0xbd41cfbf	-0.047317263
89	0xbd2fa245	-0.04287936
90	0xbde4e810	-0.11177075
91	0xbd571114	-0.05250652
92	0xbda27a84	-0.07933524
93	0xbde66a88	-0.11250788
94	0xbda74a88	-0.081685126
95	0xbd2197c1	-0.039451364
96	0xbc9d0630	-0.01916799
97	0xbd01bafd	-0.031672467
98	0xbc28a367	-0.010292864
99	0xbd1a0aa5	-0.037607808
100	0xbc688b58	-0.014193378
101	0xbc6bab5c	-0.014384117
102	0xbce23763	-0.027614301
103	0x3d192c06	0.0373955
104	0x3da143c4	0.078742534
105	0xbd99ebf8	-0.075157106
106	0xbd6111ba	-0.054948546
107	0xbd329567	-0.043599512
108	0xbd88579c	-0.06657335
109	0xbd95c617	-0.07313173
110	0xbd684f45	-0.056716222
111	0xbcd9fd6d	-0.0266101
112	0xbd4202d3	-0.047365975
113	0xbca087c2	-0.019595984
114	0xbc291fd0	-0.010322526
115	0xbd7bc39a	-0.061465837
116	0xbd19b224	-0.037523404
117	0xbd71d016	-0.059036337
118	0xbd97b1d5	-0.07406966
119	0xbc16235f	-0.009163707
120	0xbc91de90	-0.017806321
121	0x3c7d7d8d	0.015471828
122	0xbc3338d9	-0.0109388465
123	0x3bce506a	0.006296207
124	0x3cda1141	0.026619555
125	0x3d7dd324	0.061968938
126	0xbd4cbae7	-0.04998293
127	0x39be8f7b	0.00036346525
128	0x3d5a1974	0.05324693
129	0x3d51ed19	0.051251505
130	0x3ce7fa93	0.028317725
131	0x3c2c4bb1	0.010516093
132	0xbc53d4a0	-0.012929112
133	0x3cbbd721	0.02292973
134	0xbb4b8a35	-0.003105772
135	0x3c50c906	0.01274324
136	0x3d1151dc	0.035478458
137	0x3bd66795	0.0065431097
138	0x3c0e181d	0.008672741
139	0x3d16715d	0.036729205
140	0x3d348e9b	0.04408131
141	0x3ce8ed1a	0.028433371
142	0x3ca05bc8	0.019575015
143	0x3d415ef2	0.047209688
144	0x3d2ef97e	0.042718403
145	0x3c18e33e	0.0093315225
146	0x3ca0aa05	0.019612322
147	0xbc258be3	-0.010104152
148	0x3cf4e708	0.02989532
149	0x3b47e24f	0.003049988
150	0x3c30d8cf	0.010793879
151	0x3bd0f1df	0.0063764895
152	0x3d83b937	0.06431811
153	0x3d664928	0.05622211
154	0x3d5c61b1	0.053804103
155	0xbd9851bf	-0.07437467
156	0xbd41874f	-0.04724818
157	0xbcd51521	-0.026011052
158	0x3c5d77f0	0.013517365
159	0x39671d38	0.00022040762
160	0xbb511dcf	-0.0031908636
161	0x3ca9b3f5	0.020715693
162	0x3d24e232	0.04025478
163	0x3d4804ab	0.048832577
164	0x3db9326c	0.0904282
165	0x3cfaca65	0.030614087
166	0x3ce24174	0.027619101
167	0x3d65bfcc	0.056091115
168	0x3d63881d	0.05554973
169	0x3d0fc6e3	0.035101783
170	0x3cd4d47a	0.025980223
171	0xbcf0760c	-0.029353164
172	0xbb5c797d	-0.0033641749
173	0x3cc67c0c	0.024229072
174	0x3ce43f6f	0.027862279
175	0xbdc8b840	-0.09800768
176	0xbdf3e72f	-0.11909329
177	0xbdde0e96	-0.10842626
178	0xbddc616c	-0.10760769
179	0xbd9cf05e	-0.07663034
180	0xbd0d0fe0	-0.034438968
181	0xbdaff393	-0.0859138
182	0xbda58273	-0.08081522
183	0xbdacb53e	-0.08433007
184	0xbcd93788	-0.026515737
185	0x3d7b23bc	0.061313376
186	0xbc816e0e	-0.015799548
187	0xbd14bbea	-0.03631202
188	0xbcdc5bdf	-0.026899276
189	0xbc5abe65	-0.013351058
190	0x3cf4ed37	0.02989827
191	0xbc475ee0	-0.012168616
192	0x3c16b5c2	0.009198608
193	0x3d17f7fd	0.037101734
194	0x3b542dbe	0.0032375897
195	0x3dddd4a6	0.10831575
196	0x3dd2fff0	0.103027225
197	0x3dadaa38	0.08479732
198	0x3dacacb0	0.08431375
199	0x3d7fa04d	0.062408734
200	0x3d7964fb	0.060887318
201	0x3d54c267	0.05194321
202	0x3cec60cb	0.028854748
203	0x3cdb7241	0.026787879
204	0xbc623a28	-0.013807811
205	0x3d3159ce	0.043298535
206	0x3d2fe6c4	0.042944685
207	0xbc917e50	-0.017760426
208	0xbc4c60fa	-0.012474293
209	0xbcc28f0b	-0.023749849
210	0x3dbbb28c	0.091649145
211	0x3d371ce4	0.044705287
212	0x3c6f0ac8	0.014589973
213	0xb9a87536	-0.00032130786
214	0xbd7ab43e	-0.06120705
215	0x3d892dbc	0.06698176
216	0x3d810241	0.06299258
217	0x3d000e58	0.03126368
218	0x3b9e777d	0.0048360215
219	0xbc4472f9	-0.011990302
220	0x3be45d2b	0.0069691143
221	0x3c27fb95	0.010252853
222	0x3c5eac76	0.013590923
223	0xbbcf4b34	-0.0063261036
224	0xbc3bdd3f	-0.011466323
225	0xbb893eae	-0.00418838
226	0xbd16bbee	-0.036800317
227	0xbb56426e	-0.0032693404
228	0xbcd1adf1	-0.025595637
229	0xbacf1905	-0.0015800303
230	0xbc8d19fa	-0.0172243
231	0xbccdc493	-0.025118148
232	0xbb82563d	-0.0039775656
233	0xbc637892	-0.013883727
234	0xbb9c8459	-0.0047765193
235	0xbbcad293	-0.006189653
236	0x3ca49c21	0.02009398
237	0xbd49b5a0	-0.049245477
238	0xbd13d342	-0.036090143
239	0xbc123626	-0.008924043
240	0x3bc20a52	0.0059216404
241	0x3c595b9f	0.013266473
242	0x3b03d623	0.002011665
243	0x3d190e46	0.037367128
244	0xbb0c98c9	-0.0021453372
245	0xbd59e646	-0.05319812
246	0xbd07ae59	-0.033125255
247	0xbc597066	-0.013271427
248	0x3ce0b9f2	0.027432416
249	0xbd2d69d2	-0.042337246
250	0x3d5e5048	0.05427578
251	0x3c97089d	0.018436724
252	0x3ce78e31	0.028266044
253	0x3c7e66ad	0.0155274095
254	0xbd0c5c3e	-0.034267657
255	0x3d22c012	0.039733954

bias f4 [16]
0	0xbd3c0b6e	-0.045909338
1	0x3e1fb7ef	0.15597509
2	0xbec7cb82	-0.39022452
3	0xbc9796fd	-0.018504614
4	0xbe2b4b21	-0.16727878
5	0x3a90dab6	0.0011051509
6	0x3eef873d	0.46782866
7	0xbdfaa3eb	-0.12238296
8	0xbe8c2c7e	-0.27377695
9	0x3e8b2898	0.27179408
10	0x3ea00d40	0.3126011
11	0x3eaaed8b	0.33384356
12	0x3de97b91	0.114005215
13	0x3cbbd485	0.022928486
14	0x3ee0e72b	0.43926367
15	0x3e1f89e9	0.15579952

weight f4 [120, 400]
0	0x3df7fca8	0.12108737
1	0x3c1e6063	0.009666535
2	0x3cfe5526	0.031046461
3	0x3cbc8dff	0.023016928
4	0x3e553d3c	0.2082414
5	0x3dc780c5	0.09741358
6	0xbd033397	-0.03203162
7	0xbd032d56	-0.032025658
8	0xbd3332d2	-0.043749638
9	0x3d6dd47b	0.058063965
10	0x3d5011d7	0.050798263
11	0xbd4b516f	-0.049638208
12	0xbccf1a06	-0.025280964
13	0xbceb9888	-0.028759256
14	0x3d3e5d54	0.046475723
15	0xbbced807	-0.0063123736
16	0xbd346f5c	-0.044051513
17	0xbd26a6f3	-0.04068656
18	0xbc58fee9	-0.013244369
19	0x3d16f862	0.03685797
20	0x3d267bb0	0.0406453
21	0xbc8f8e1f	-0.017523823
22	0x3ce0ea43	0.027455455
23	0xbc1c37a7	-0.009534753
24	0x3d73dba5	0.05953564
25	0x3cf9f623	0.030512875
26	0xbd5581d0	-0.052125752
27	0x3d36d049	0.04463223
28	0xbc0b6a6e	-0.0085092615
29	0xbddb0f7f	-0.10696315
30	0xba6adf56	-0.0008959671
31	0xbd147c24	-0.036251202
32	0xbd116528	-0.03549686
33	0xbd9c4ae6	-0.07631473
34	0xbd37c31e	-0.044863813
35	0x3dd031fc	0.10165784
36	0xbc66ff3d	-0.0140989395
37	0xbd527853	-0.05138428
38	0xbd3cada8	-0.04606405
39	0x3d1b85c2	0.03796936
40	0x3d6a1cc2	0.05715633
41	0x3c95fd94	0.018309392
42	0xbcf9be3c	-0.030486219
43	0xbc45719f	-0.012051015
44	0x3cdd0083	0.026977783
45	0x3d015b63	0.031581294
46	0x3c1a0233	0.009399938
47	0xbcecfcb6	-0.028929096
48	0xbd189253	-0.03724892
49	0x3d450270	0.048098028
50	0xbd8066a7	-0.062695794
51	0xbc8354fe	-0.016031738
52	0xbd05b7ca	-0.032645978
53	0xbd85c1ff	-0.065311424
54	0xbdae6edb	-0.08517238
55	0xbc4a5d7f	-0.012351393
56	0xbd70a18e	-0.05874782
57	0xbd3679a1	-0.044549588
58	0xbcde3076	-0.027122717
59	0xbb950603	-0.004547836
60	0xbcf76a1c	-0.030201964
61	0xbd72dc3a	-0.059292056
62	0xbdc34019	-0.0953371
63	0xbd1767aa	-0.036964096
64	0xbc2389c0	-0.009981573
65	0xbc75095d	-0.014955846
66	0xbd9183d9	-0.07105226
67	0xbd931f14	-0.07183662
68	0xbd81f8a6	-0.06346254
69	0xbcb70f37	-0.022346122
70	0xbd549d29	-0.051907692
71	0xbdc8bb09	-0.09801299
72	0xbd9f2b43	-0.077719234
73	0xbd91a14d	-0.07110844
74	0xbd52579c	-0.051353082
75	0x3cd8b457	0.02645318
76	0xbd41b3cc	-0.04729061
77	0xbcb69dd3	-0.022292053
78	0xbba42137	-0.0050088423
79	0x3da5dcae	0.08098732
80	0x3d2f2e01	0.042768482
81	0x3cec1b8a	0.028821725
82	0x3ce4b0d8	0.027916357
83	0x3d922cc4	0.071374446
84	0x3d435beb	0.04769508
85	0x3c5bc5fa	0.0134139005
86	0xbd8ef281	-0.06979848
87	0x3c825320	0.015908778
88	0x3bce69de	0.0062992414
89	0x3c517e8c	0.012786519
90	0xbc314750	-0.010820225
91	0xbd99ff89	-0.075194426
92	0xbc8897ca	-0.016673941
93	0x3d4a8765	0.04944553
94	0xbc750ecf	-0.014957144
95	0x3d2c2200	0.042024612
96	0xbbfd55d4	-0.007731179
97	0x3d2d8be5	0.042369742
98	0x3cdd8217	0.02703957
99	0x3d4a9005	0.049453754
100	0xbcc4ad42	-0.024008397
101	0xbd2b043d	-0.04175209
102	0x3d9fcc00	0.07802582
103	0x3d8de907	0.06929212
104	0xbc9fec0e	-0.01952174
105	0xbd717a80	-0.058954716
106	0x3b9ff46f	0.0048814337
107	0x3bafb79e	0.005362465
108	0x3d586a85	0.05283596
109	0x3b6f35d0	0.003650058
110	0x3c07957f	0.008275389
111	0xbbfb7447	-0.0076737734
112	0x3b1e6448	0.002416866
113	0x3c9c5cd0	0.019087225
114	0xbd9e4ae5	-0.07729129
115	0x3ce3b972	0.027798388
116	0xbc7f1276	-0.015568366
117	0xbd0fb0f8	-0.03508088
118	0xbc7bc84b	-0.015367578
119	0xbd15757e	-0.036489002
120	0x3cb7b397	0.022424502
121	0x3ce05103	0.02738238
122	0xbbd17db4	-0.006393159
123	0xbbeb49e0	-0.0071804374
124	0xbc7817dc	-0.015142407
125	0x3d8eeb9c	0.06978533
126	0xbbc8f6b2	-0.006132924
127	0x3d178c2d	0.036998916
128	0x3cdcd52e	0.02695712
129	0x3c9ec3ad	0.019380415
130	0xbbc3888b	-0.005967205
131	0x3c8dc4b2	0.017305706
132	0xbcd2bf5a	-0.02572601
133	0xbcf2f6c8	-0.02965869
134	0x3c173bb2	0.009230541
135	0x3da0901b	0.07839986
136	0x3baa78ed	0.0052024038
137	0x3c5406c2	0.012941064
138	0x3db91e07	0.090389304
139	0xbcab62fa	-0.02092122
140	0x3e04511f	0.1292157
141	0x3d74ce4e	0.05976706
142	0x3db405f3	0.08790197
143	0x3d835ce0	0.06414199
144	0x3d6c473d	0.057685126
145	0x3db91c64	0.09038618
146	0x3ce86ccb	0.028372189
147	0x3d92bd69	0.07165033
148	0x3d825fb1	0.06365908
149	0x3d8e30ac	0.06942877
150	0xbce15042	-0.02750409
151	0x3a253aa5	0.0006302989
152	0xbd305234	-0.043047145
153	0x3c05c2f0	0.0081641525
154	0x3ccaf26e	0.024773803
155	0xba1b3c3d	-0.0005921757
156	0xbd5a330e	-0.053271346
157	0xbdaa3904	-0.08311656
158	0x3c87877d	0.016544098
159	0x3d76a549	0.060216222
160	0xbd0aa891	-0.033852164
161	0xbd8dfc40	-0.069328785
162	0x38b60a5e	8.680367e-05
163	0xbd20ad65	-0.039227862
164	0x3d1356dd	0.03597151
165	0x3d39f901	0.045403484
166	0xbcfc7d8b	-0.030821582
167	0x3c4c9116	0.012485763
168	0x3da24d2e	0.07924877
169	0x3d08ab81	0.033366684
170	0x3d518d2c	0.051160023
171	0xbc976230	-0.018479437
172	0xbca19bfe	-0.019727703
173	0x3b4449b2	0.0029951152
174	0xbd55203b	-0.05203269
175	0x3c861fc7	0.016372574
176	0x3bac9d23	0.0052677556
177	0x3cb32c62	0.02187175
178	0x3c3216a1	0.010869653
179	0x3c960a79	0.01831554
180	0x3c5212db	0.012821878
181	0xbc87591a	-0.01652198
182	0x3cadf021	0.021232666
183	0xb9244386	-0.00015665413
184	0xbc8119c9	-0.015759366
185	0xbc2c911a	-0.010532642
186	0xbd794dd9	-0.060865257
187	0xbd02ded3	-0.031950783
188	0xbc503eba	-0.012710268
189	0xbd4cd634	-0.050008968
190	0xbd17c1d0	-0.03705007
191	0xbd50167c	-0.050802693
192	0xbcd6b079	-0.026207196
193	0x3c3d6d79	0.011561745
194	0xbc75962f	-0.01498942
195	0x3cd15d72	0.025557254
196	0xbd2d6554	-0.042332962
197	0x3d629b39	0.055323813
198	0x3d6ffc2d	0.058590103
199	0x3d3dc20a	0.04632763
200	0x3c1eeaf2	0.00969957
201	0x3ddf9d78	0.10918707
202	0x3da5890b	0.080827795
203	0x3cc2ed85	0.023794899
204	0x3d0d3f8a	0.034484424
205	0xbc14ca64	-0.009081457
206	0x3dcc51fd	0.099765755
207	0x3ddd0e18	0.10793704
208	0x3dbb15a1	0.09134985
209	0x3da75d25	0.08172063
210	0xbd08abf5	-0.033367116
211	0x3e0e412d	0.1389205
212	0x3df1088a	0.11769207
213	0x3d9f66cc	0.07783279
214	0x3cba92d2	0.022775088
215	0xbd12dfb9	-0.03585789
216	0x3de79f86	0.113097236
217	0x3d812f64	0.06307867
218	0x3d95c521	0.0731299
219	0xbd018b89	-0.03162721
220	0x3d14843b	0.036258917
221	0x3de50399	0.11182327
222	0x3da0a40b	0.07843789
223	0x3dcb40a9	0.09924442
224	0x3c8633ec	0.01638218
225	0xbc3dbebb	-0.011581118
226	0x3ccf7235	0.025323013
227	0x3d1e0bba	0.038585402
228	0xbbb9da6c	-0.00567179
229	0x3b33846f	0.002739217
230	0xbd27bd5b	-0.040952068
231	0x3c9dad59	0.019247698
232	0x3cc2df3b	0.023788085
233	0x3d3f8dce	0.046766095
234	0xbd42ea24	-0.047586575
235	0xbc8af009	-0.01696016
236	0x3d3667d1	0.0445326
237	0x3c49f9da	0.012327636
238	0x3b24424e	0.0025063935
239	0xbb6353b4	-0.0034687342
240	0x3b951d29	0.0045505953
241	0x3c4d9a6e	0.012549026
242	0x3da3e871	0.08003319
243	0x3c9516e6	0.018199395
244	0xbbb663cf	-0.0055660973
245	0xbcf2fbf3	-0.029661154
246	0x3c997806	0.01873399
247	0xbd15a56e	-0.03653472
248	0x3cd1584e	0.025554802
249	0x3cc72c64	0.02431316
250	0x3ceaf2f2	0.028680298
251	0xbd5f07f1	-0.054450933
252	0xbd57916c	-0.05262892
253	0x3bb59ebf	0.0055426056
254	0x3d0681c4	0.032838598
255	0x3c07d8fc	0.008291479

bias f4 [120]
0	0x3d51cfb5	0.051223475
1	0x3d0dad8b	0.03458933
2	0x3c8d1a0d	0.017224336
3	0x3766c11b	1.3754029e-05
4	0x3d99a82f	0.075027816
5	0x3dbe6e82	0.092984214
6	0x3d9c3e8c	0.07629117
7	0xbbb42b2a	-0.0054983096
8	0xbcc2ff78	-0.023803458
9	0x3a7a5e06	0.0009550754
10	0x3b650ea4	0.0034951353
11	0xbcdc0cd4	-0.026861586
12	0xbb860a81	-0.0040906076
13	0xbdb705b4	-0.08936635
14	0x3c254ec3	0.010089579
15	0xbd2c1afe	-0.04201793
16	0xbc7ab7fe	-0.015302656
17	0x3d30297b	0.04300831
18	0xbda4f3e2	-0.080543295
19	0xbda11676	-0.07865612
20	0xbd35eb65	-0.044413943
21	0xbd7aa53a	-0.06119273
22	0xbcfaac80	-0.030599833
23	0x3dc32f8a	0.09530552
24	0xbcb8ac0d	-0.022542978
25	0x3da9bce5	0.08287982
26	0x3c0889bf	0.0083336225
27	0x3dd75e3e	0.10516022
28	0xbcc98172	-0.024597857
29	0x3d25c8b2	0.0404746
30	0x3c898870	0.016788691
31	0xbd3966db	-0.045264106
32	0x3c6eb0a3	0.014568481
33	0x3c83af54	0.016074814
34	0xbd45a499	-0.048252676
35	0x3dc62476	0.09674923
36	0x3d86cbff	0.06581878
37	0xbca0a84e	-0.019611504
38	0xbd11db38	-0.035609454
39	0x3cc2f613	0.023798978
40	0x3cd08fc2	0.025459174
41	0x3b811f07	0.0039404663
42	0x3d0b2009	0.033966098
43	0x3caf509f	0.021400748
44	0xbb5c84da	-0.0033648522
45	0xbd6b57ef	-0.057456907
46	0x3d9d44c1	0.076791294
47	0x3d9fa525	0.07795171
48	0xbb6ebfcf	-0.0036430245
49	0xbccf1dd6	-0.025282782
50	0xbacba7ab	-0.001553764
51	0x3d3f49de	0.046701305
52	0xbb1eefde	-0.0024251859
53	0x3c445de7	0.011985279
54	0x3d6fa1a2	0.058503754
55	0x3d8f1644	0.06986669
56	0x3cfda609	0.03096296
57	0x3dafeb9c	0.08589861
58	0x3e22c647	0.1589595
59	0x3d08d70b	0.033408206
60	0x3de26a16	0.110553905
61	0x3d84947b	0.06473633
62	0x3d3a671f	0.0455085
63	0xbd36f928	-0.044671208
64	0x3d9d999f	0.076953165
65	0xbc802b05	-0.015645513
66	0x3cf738e6	0.030178498
67	0x3e3b78f3	0.18307857
68	0x3c9d5cfa	0.019209374
69	0x3d58a342	0.05289007
70	0xbce5a12b	-0.028030952
71	0x3dc833b2	0.09775485
72	0x3d68c066	0.05682411
73	0x3d40e101	0.04708958
74	0x3d9a01fb	0.07519909
75	0xbb8a7b03	-0.00422609
76	0x3b6ec402	0.0036432748
77	0xbd6ecb31	-0.058299247
78	0xbd07aab0	-0.033121765
79	0x3cd5dfe5	0.026107738
80	0xbd4de383	-0.0502658
81	0x3c4857ac	0.012227934
82	0xbc346ed0	-0.011012748
83	0x3c56c40e	0.0131082665
84	0x3d343d83	0.044003975
85	0xbc3c9a3f	-0.0115113845
86	0xbcd3855a	-0.025820423
87	0xbda97b11	-0.08275426
88	0x3d2a048d	0.041508246
89	0xbd313419	-0.043262575
90	0xbda641e2	-0.08118035
91	0xbc92f228	-0.017937735
92	0xbda0d6ad	-0.07853446
93	0x3d0f75f4	0.0350246
94	0xbd9321e8	-0.071842015
95	0xbbebdfd3	-0.007198313
96	0x3e2b30fc	0.16717905
97	0x3bce7cd2	0.006301501
98	0xbc156f2d	-0.009120745
99	0xbd353710	-0.044241965
100	0x3d25165d	0.04030453
101	0x3d8fdd16	0.07024591
102	0x3dd94cec	0.10610375
103	0x3d0b19c9	0.033960138
104	0x3d898861	0.06715465
105	0x3d1130d7	0.035446968
106	0xbcb6e1e6	-0.022324514
107	0xbdb937d0	-0.090438485
108	0xbd5fd559	-0.054646824
109	0x3d3e3086	0.046432994
110	0x3d1d75a3	0.038442265
111	0xbcdcf95c	-0.026974373
112	0xbcac97a5	-0.021068403
113	0x3c34ee52	0.011043148
114	0x3d164cda	0.036694385
115	0x3b3bf4c0	0.0028679818
116	0x3d894b3a	0.067038015
117	0xbc831f25	-0.016006062
118	0x3d57f5cd	0.05272465
119	0x3ca1e5bc	0.019762866

weight f4 [84, 120]
0	0x3d8e81c4	0.069583446
1	0xbd9346dc	-0.0719125
2	0x3e2e4675	0.17019065
3	0xbd10382d	-0.035209823
4	0x3c216e6f	0.00985299
5	0xbd1c0a5c	-0.038095817
6	0xbd13bcc3	-0.03606869
7	0xbd2f9eb0	-0.042875946
8	0xbdcc5c00	-0.09978485
9	0x3c675940	0.0141204
10	0x3bbb4555	0.005715052
11	0x3d1c5caa	0.03817431
12	0x3d88dfb9	0.06683297
13	0x3c98574b	0.018596312
14	0x3a54efef	0.0008122911
15	0xbcc846bd	-0.024447793
16	0x3d9f946e	0.077919826
17	0x3cb5562d	0.022135818
18	0x3dc8aca9	0.09798557
19	0xbce67302	-0.028131012
20	0x3d960ea4	0.07327011
21	0x3d3498be	0.04409098
22	0xbd87ce44	-0.06631139
23	0x3a9074fd	0.0011021193
24	0x3d13ef26	0.03611674
25	0xbdcb0d11	-0.099146016
26	0xbd33c864	-0.04389228
27	0xbe0a3f5f	-0.13500737
28	0x3da607d7	0.08106964
29	0x3d207620	0.039175153
30	0x3de21ef5	0.11041061
31	0xbd2268e4	-0.039650813
32	0x3da0ce66	0.078518674
33	0x3ce972c5	0.02849711
34	0x3c7a8827	0.01529125
35	0x3d9b7bb8	0.07591957
36	0xbe081bf9	-0.1329192
37	0xbd49385c	-0.049126014
38	0x3e2295a1	0.15877391
39	0xbdee1bef	-0.11626422
40	0xbd5577df	-0.05211627
41	0xbd9345d9	-0.07191057
42	0xbd28360c	-0.041067168
43	0x3cc45cd7	0.02397005
44	0x3cae9112	0.02130941
45	0x3def93b9	0.11698098
46	0x3dc49cbb	0.096002065
47	0x3c8153ae	0.015786972
48	0x3e3288e0	0.17435026
49	0xbd291978	-0.041284055
50	0xbdb2f779	-0.08738608
51	0x3dca9a15	0.0989267
52	0x3d5ef4e8	0.05443278
53	0xbcddef65	-0.027091691
54	0x3d84e50a	0.06488998
55	0x3d964b73	0.073386095
56	0x3d4c3747	0.049857404
57	0x3e3a1feb	0.18176238
58	0x3dd78780	0.105238914
59	0x3dd061e3	0.101749204
60	0x3bf1ebb5	0.007382835
61	0xbdbf1a7b	-0.093312226
62	0x3da27de2	0.079341665
63	0xbd908c35	-0.07057992
64	0x3de5b01c	0.11215231
65	0x3d4816e3	0.04884995
66	0x3e3e8b64	0.18607861
67	0xbe098bcb	-0.13432233
68	0x3db104d4	0.08643499
69	0x3d6a8e34	0.05726452
70	0x3d04604e	0.032318406
71	0xbce8f768	-0.028438285
72	0x3dc7b0f4	0.09750548
73	0x3c510ebc	0.012759861
74	0xbba0d344	-0.0049079973
75	0xbd93cc1d	-0.07216666
76	0xbd9420ee	-0.07232843
77	0x3ca96438	0.02067767
78	0x3d518c7d	0.05115937
79	0x3d5e90b7	0.05433723
80	0xbc702b0f	-0.0146587035
81	0x3c828ab3	0.015935278
82	0x3c874d3b	0.016516319
83	0xbd2309b4	-0.039804175
84	0xbdbdf45b	-0.09275123
85	0xbd34555c	-0.044026718
86	0xbddef1f3	-0.10885992
87	0x3985cf69	0.0002552227
88	0x3e15e9df	0.14639996
89	0xbe10d89e	-0.14145133
90	0xbdb3d1a8	-0.08780223
91	0x3df273a1	0.11838461
92	0x3d6275df	0.055288192
93	0x3cc8a6fd	0.024493689
94	0xbd4a4f7c	-0.04939221
95	0x3e116a4e	0.14200708
96	0x3b941e2f	0.0045201997
97	0xbc0232e1	-0.007946701
98	0xbce0d396	-0.027444642
99	0xbd8c81ac	-0.068606704
100	0xbd4c6dcf	-0.04990941
101	0xbd1004a3	-0.035160672
102	0xbd933c94	-0.07189289
103	0xbd05ebc9	-0.032695565
104	0xbe1c389f	-0.15255974
105	0xbc97ad17	-0.018515153
106	0x3de55d44	0.1119943
107	0x3dcbbaa7	0.099477105
108	0xbe31ce3d	-0.1736383
109	0x3c48698a	0.012232194
110	0x3dd48bd2	0.10378231
111	0x3d8065c2	0.06269409
112	0xbc98b9dd	-0.018643314
113	0xbd8ab9af	-0.067736976
114	0xbdf9650d	-0.12177477
115	0x3d0c1b28	0.034205586
116	0x3caba48b	0.020952484
117	0xbd67dbd0	-0.056606114
118	0xbcadf87b	-0.021236649
119	0x3cb4b947	0.022061003
120	0x3c38a01a	0.01126864
121	0x3df8ce8f	0.12148773
122	0x3d7b3a04	0.061334625
123	0x3c310c64	0.010806177
124	0xbd6377c5	-0.055534143
125	0x3e75d03e	0.2400522
126	0xba7bf203	-0.00096109527
127	0xbd1e2379	-0.038608048
128	0x3c9331eb	0.017968139
129	0xbb620eb7	-0.0034493634
130	0x3dca4ee0	0.098783255
131	0xbdffc020	-0.12487817
132	0xbe139ec3	-0.14416032
133	0xbd60f460	-0.054920554
134	0xbe2fbf76	-0.1716288
135	0x3e789c9b	0.2427849
136	0x3dd2909a	0.10281487
137	0x3d8cffdd	0.068847395
138	0xbd739041	-0.059463743
139	0xbe1cca80	-0.15311623
140	0x3db66bc0	0.089072704
141	0xbc91126f	-0.017708985
142	0xbb8a06d8	-0.0042122416
143	0x3d0c21dd	0.034211982
144	0x3a376bdf	0.000699697
145	0xbd3278cd	-0.043572236
146	0x3d945309	0.072424
147	0xbdb9dc9c	-0.09075281
148	0xbc825030	-0.015907377
149	0x3d78a103	0.060700428
150	0xbc1fc79f	-0.009752183
151	0xbcabf8e1	-0.020992698
152	0xbcea46eb	-0.02859827
153	0xbdee4166	-0.116335675
154	0x3c7a41e5	0.0152745
155	0xbda0a564	-0.07844046
156	0xbd6fed44	-0.058575884
157	0xbad87ba4	-0.001651634
158	0x3dde78ca	0.108628824
159	0x3d75938c	0.059955165
160	0x3cb62420	0.022234023
161	0x3e2a5338	0.16633308
162	0xbd6ffccf	-0.058590706
163	0xbd3608f2	-0.044442125
164	0x3d06be99	0.03289661
165	0xbd9d4e09	-0.076809
166	0x3d109312	0.035296507
167	0xbd1a2821	-0.037635926
168	0x3d68c9d7	0.056833114
169	0x3d44e6fe	0.048071854
170	0x3e0b8d9a	0.13628235
171	0xbdd61a15	-0.104541935
172	0x3cd8c086	0.02645899
173	0x38f9604c	0.00011891182
174	0x3e1fd162	0.15607217
175	0x3a4b1d2b	0.0007748182
176	0x3d8454f0	0.06461513
177	0x3db0e063	0.08636548
178	0xbcf0b8d7	-0.029385014
179	0xbc9cf3de	-0.019159254
180	0xba149848	-0.00056684436
181	0x3dd2dd3b	0.102961026
182	0xbc26c49d	-0.010178712
183	0x3d2683b8	0.04065296
184	0x3d124d1e	0.035718076
185	0xbdb96f23	-0.09054401
186	0x3e03bc37	0.12864767
187	0x3d72cfbc	0.059280142
188	0xbda0e060	-0.07855296
189	0x3db2bc3b	0.08727308
190	0xbe26a190	-0.16272569
191	0xbe120e0f	-0.14263175
192	0xbe05e6ae	-0.13076279
193	0xbc3a8bf2	-0.011385905
194	0x3d875306	0.06607632
195	0xbde2de45	-0.11077551
196	0x3d346ed3	0.044051003
197	0xbdeccd01	-0.11562539
198	0xbc882fdc	-0.016624384
199	0x3dbd38f5	0.09239379
200	0x3ce5bf70	0.028045386
201	0xbcfd2686	-0.030902158
202	0xbd0bf888	-0.034172565
203	0x3c3436dc	0.010999408
204	0xbe56575a	-0.2093176
205	0xbb4669cb	-0.003027546
206	0x3b00e4bb	0.0019667584
207	0xbb98c354	-0.004661957
208	0xbd86cc2f	-0.06581914
209	0xbe0603e6	-0.13087425
210	0xbddf0c70	-0.10891044
211	0x3d871637	0.06596034
212	0xbc9d0408	-0.019166961
213	0x3d9e5a4d	0.07732067
214	0x3d8a11ac	0.06741652
215	0x3d35a950	0.044350922
216	0x3dab2018	0.08355731
217	0x3dc6a591	0.09699548
218	0xbbc71657	-0.006075661
219	0x3d1e3fab	0.038634937
220	0xbe072d32	-0.13200834
221	0xba578928	-0.0008222037
222	0x3df44b26	0.11928396
223	0x3d270c64	0.0407833
224	0xbd118aa9	-0.035532627
225	0xbdfbb313	-0.12290015
226	0x3aa2ec77	0.0012430091
227	0xbddd3a2a	-0.108021095
228	0xbc44840b	-0.011994372
229	0xbd9818d0	-0.074266076
230	0xbd2bc3ce	-0.04193478
231	0xbd642014	-0.055694655
232	0xbd59edfa	-0.053205468
233	0xbcb9e094	-0.022690095
234	0xbd7437e8	-0.05962363
235	0x3e1732ea	0.14765516
236	0xbd30cf6b	-0.04316656
237	0x3d26a6eb	0.04068653
238	0x3c0c9ee3	0.008582803
239	0xbe425726	-0.18978557
240	0x3d5a435d	0.0532869
241	0x3d554f04	0.05207731
242	0xbdc3e585	-0.09565262
243	0x3b5dc79f	0.0033840907
244	0xbd21452e	-0.039372616
245	0x3da7eac1	0.08199073
246	0x3d6ef325	0.05833735
247	0x3e2b52d7	0.1673082
248	0xbdd8d222	-0.10586955
249	0xbe3c98ae	-0.18417618
250	0x3d4a1dab	0.0493447
251	0x3dab4ded	0.083644725
252	0xbe2aa78a	-0.16665474
253	0xbc157fa9	-0.009124675
254	0x3d89069c	0.06690714
255	0xbdb4dd9a	-0.0883133

bias f4 [84]
0	0x3da785b2	0.08179797
1	0x3e22c0f6	0.15893921
2	0xbc4a5c11	-0.012351052
3	0xbccae3eb	-0.024766883
4	0x3c9d4fd5	0.019203106
5	0xbcabf011	-0.020988496
6	0x3ccbc673	0.024874901
7	0xbc85eb11	-0.01634744
8	0xbdc245a0	-0.09485936
9	0x3dc8347f	0.09775638
10	0x3e4067d4	0.18789607
11	0xbd9d0977	-0.07667821
12	0xbdfaf0af	-0.12252938
13	0xbcf9b29a	-0.030480672
14	0x3d347d36	0.044064723
15	0x3d305cd5	0.04305728
16	0x3cd42c9a	0.025900174
17	0xbde17235	-0.110081114
18	0x3d5c22f4	0.05374427
19	0x3c4ec470	0.012620077
20	0x3daac7c0	0.083388805
21	0x3d631cd6	0.055447422
22	0x3d0b96b8	0.034079283
23	0x3d188053	0.037231755
24	0xbda7fe02	-0.08202745
25	0xbdecff29	-0.115721054
26	0x3e157e77	0.14599024
27	0x3dba9789	0.09110934
28	0xba74be76	-0.0009336242
29	0xbd443890	-0.047905505
30	0xbcc39306	-0.023873817
31	0x3dad0d0f	0.08449756
32	0x3d1b0a29	0.037851486
33	0x3da4753d	0.08030174
34	0xbdc03a9c	-0.09386179
35	0x3db048c2	0.086076275
36	0x3df77aa8	0.12083942
37	0xbd865c61	-0.06560589
38	0xbbe637a4	-0.007025676
39	0xbddc5594	-0.1075851
40	0x3e13ef57	0.1444677
41	0xbdadbe5b	-0.08483573
42	0x3d2fc9ad	0.042916942
43	0xbd778488	-0.060429126
44	0x3dbb3ef2	0.09142865
45	0x3da4474c	0.08021411
46	0xbdfeb5b4	-0.12437001
47	0xbd8782ef	-0.066167705
48	0x3d896784	0.06709197
49	0xbd90c84d	-0.07069454
50	0x3da38b04	0.079854995
51	0xbca9afd4	-0.020713724
52	0x3d0a3416	0.03374108
53	0x3d7f7a5e	0.062372558
54	0x3d62d4d0	0.055378735
55	0x3ced0ca5	0.028936693
56	0x3dea0887	0.11427408
57	0x3da534e4	0.08066729
58	0x3d0d0d7e	0.034436695
59	0x3e24c13a	0.16089335
60	0xbcf653cc	-0.030069254
61	0x3dfec7de	0.124404654
62	0x3e0952fc	0.13410562
63	0x3cbf5bcc	0.023359202
64	0x3d04df8c	0.032439753
65	0xbdc29159	-0.09500379
66	0x3c0d184c	0.00861175
67	0x3d7704d4	0.06030734
68	0x3ce96eb6	0.028495174
69	0x3e1353c1	0.14387418
70	0xbb44d1f4	-0.0030032368
71	0x3e808dda	0.25108224
72	0x3dfb22de	0.1226251
73	0x3cdf2219	0.027237939
74	0xbb162e32	-0.0022915718
75	0xbdc07973	-0.093981646
76	0x3dadb579	0.08481879
77	0x3d5cd1bd	0.05391096
78	0x3db3f181	0.087862976
79	0x3d16ead5	0.036845047
80	0xbdd63d7f	-0.10460948
81	0x3d938f41	0.07205058
82	0x3e46dd02	0.19420245
83	0x3dc1076d	0.094252445

weight f4 [10, 84]
0	0xbe298f8b	-0.16558664
1	0x3d9a150a	0.07523544
2	0xbc33a724	-0.010965142
3	0xbc08028f	-0.008301391
4	0xbe84d259	-0.25941733
5	0xbe935850	-0.28778315
6	0x3ebe1305	0.37123886
7	0x3cad2cee	0.021139588
8	0xbe5139a8	-0.2043215
9	0x3e229db5	0.15880473
10	0xbe28f1b0	-0.16498446
11	0xbd3535f5	-0.04424091
12	0x3d903dde	0.0704305
13	0x3d50ed6c	0.051007673
14	0x3cdb832f	0.026795952
15	0x3c0f688e	0.008752955
16	0xbe5b3728	-0.21407759
17	0xbe2289f8	-0.15872943
18	0x3db9dc17	0.09075182
19	0x3d606d6e	0.05479186
20	0x3e171d9d	0.1475739
21	0xbd46535a	-0.048419334
22	0xbe185f8b	-0.14880197
23	0xbc625ec5	-0.01381654
24	0xbc57b2be	-0.013165174
25	0xbdc7ce43	-0.09756138
26	0xbe83ed5d	-0.2576703
27	0xbd1dd349	-0.038531575
28	0x3cc3c3f6	0.023897152
29	0x3daa519e	0.083163485
30	0xbd88c2ca	-0.06677778
31	0x3e551dd5	0.20812161
32	0xbe88e441	-0.26736644
33	0x3da20beb	0.079124294
34	0x3e827e32	0.25486904
35	0x3dca451f	0.09876465
36	0xbe64bbbc	-0.2233724
37	0x3d916f81	0.07101346
38	0x3e89b355	0.26894632
39	0x3d67d5b3	0.056600284
40	0x3d011a85	0.03151943
41	0xbd68e65c	-0.056860313
42	0x3e074876	0.13211235
43	0x3dedb794	0.116072804
44	0x3ebec80e	0.37262005
45	0x3e140189	0.1445371
46	0xbe3b69e6	-0.18302116
47	0xbe835dd0	-0.2565751
48	0x3ec8306d	0.39099446
49	0x3e47bf1b	0.19506495
50	0xbd383a4d	-0.044977475
51	0xbe16aff7	-0.14715563
52	0xbd04ec0d	-0.032451678
53	0x3d855ee5	0.0651224
54	0x3e07189f	0.13192986
55	0x3cd01000	0.025398254
56	0x3d2bdf4c	0.041961
57	0x3e31ba8e	0.17356321
58	0xbdd85fa0	-0.10565114
59	0x3e590309	0.21192564
60	0xbcf9bd70	-0.030485839
61	0xbe977d8d	-0.29587975
62	0xbd5755e0	-0.05257213
63	0x3de9c233	0.11413994
64	0x3dedec33	0.11617317
65	0x3e98f5ab	0.2987493
66	0x3cd316a9	0.025767641
67	0x3de0125b	0.10941001
68	0xbd32c13b	-0.04364131
69	0x3e807171	0.2508655
70	0xbdaae20f	-0.083438985
71	0xbc88f867	-0.01672001
72	0xbe617ab1	-0.2201946
73	0xbdd597b3	-0.10429325
74	0x3dd60b47	0.1045137
75	0x3dbdb876	0.09263699
76	0x3e259c0a	0.16172805
77	0xbc8b2ef3	-0.01699016
78	0xbe23f199	-0.16010131
79	0x3ce299eb	0.027661284
80	0x3ce23d49	0.027617114
81	0xbe08bb4c	-0.13352698
82	0x3e5eeed2	0.2177079
83	0xbeb03dab	-0.3442205
84	0xbe52ddbd	-0.20592399
85	0x3e2b3f49	0.1672336
86	0x3d08bba1	0.033382062
87	0x3ddb30a8	0.1070264
88	0xbdcb6ff9	-0.099334665
89	0x3e142e21	0.14470722
90	0xbe1e9f2f	-0.15490411
91	0xbd81d402	-0.063392654
92	0x3e3ce1d0	0.18445516
93	0x3d90bb6b	0.07066997
94	0x3e38c2d6	0.18043074
95	0x3b35179b	0.0027632478
96	0x3e959aac	0.29219568
97	0xbdf047aa	-0.11732419
98	0xbe90a9c1	-0.28254512
99	0x3d6e9ffb	0.058258038
100	0xbd58afd5	-0.05290206
101	0xbe3449e4	-0.17606312
102	0x3e871815	0.2638556
103	0x3eb9366c	0.36174333
104	0xbba5db7a	-0.005061564
105	0xbd195b2d	-0.037440468
106	0xbd82baa7	-0.06383257
107	0x3e77211b	0.24133722
108	0x3e9cfe1b	0.30662617
109	0xbd6befde	-0.057601802
110	0xbe081bca	-0.1329185
111	0xbc64cd1c	-0.0139649175
112	0x3dbe7e9b	0.09301492
113	0x3eb6d7e5	0.3571159
114	0xbdd5520e	-0.10416041
115	0xbe159e5a	-0.14611188
116	0x3d569c89	0.052395377
117	0x3e084f69	0.13311543
118	0x3d698337	0.0570099
119	0xbba2d56f	-0.004969291
120	0xbe607eee	-0.2192342
121	0xbc52c40e	-0.012864126
122	0x3e19ae73	0.15007953
123	0x3d3a9466	0.04555168
124	0x3cba19ff	0.022717474
125	0x3ce68af9	0.02814244
126	0x3dcde247	0.100529246
127	0x3d83321c	0.06406042
128	0xbe10693a	-0.14102641
129	0xbeb12ecc	-0.34606016
130	0xbd882c63	-0.06649091
131	0xbd3040be	-0.043030493
132	0xbdb91a71	-0.090382464
133	0xbe0724ec	-0.13197678
134	0x3d317ddd	0.043332923
135	0xbddf39e9	-0.10899717
136	0x3d277c85	0.040890235
137	0xbce44b86	-0.027868044
138	0xbe479ba5	-0.19492967
139	0xbe1f2e3a	-0.15544978
140	0xbe6920d0	-0.22766423
141	0x3e800e6e	0.2501101
142	0x3e816685	0.2527353
143	0xbe85c199	-0.26124266
144	0x3e0716ee	0.1319234
145	0xbe38a5ce	-0.18032
146	0x3e28acb9	0.16472138
147	0xbe4f98d0	-0.20273137
148	0xbeabff58	-0.3359325
149	0xbe7f7e04	-0.24950415
150	0xbe0e6583	-0.13905911
151	0xbe855437	-0.26040813
152	0x3e8ef506	0.27921313
153	0xbdfbe9d7	-0.12300461
154	0x3d1198cb	0.035546105
155	0xbdce11e7	-0.10062008
156	0xbe7b28d6	-0.24527296
157	0xbe8754cd	-0.26431885
158	0x3e0db763	0.13839488
159	0x3ddca2fc	0.10773274
160	0x3e90186f	0.2814364
161	0xbe5b5d6e	-0.2142236
162	0xbdf8b7f2	-0.1214446
163	0x3e13d9aa	0.14438501
164	0x3e3e5c21	0.18589832
165	0xbe1932e1	-0.14960815
166	0xbe5122c9	-0.20423426
167	0xbae63d44	-0.0017565866
168	0x3b102734	0.0021996023
169	0xbe45cc5e	-0.19316241
170	0x3e8c4574	0.2739674
171	0x3d83a4bc	0.06427905
172	0x3eb56101	0.3542557
173	0xbc64a7a0	-0.013955981
174	0x3e8c6634	0.27421725
175	0x3e9cbe7f	0.30614087
176	0xbd215a88	-0.039392978
177	0x3c5f2df2	0.013621794
178	0xbe197690	-0.14986634
179	0x3ec2fdf4	0.38084376
180	0x3df89061	0.12136913
181	0x3e5e2c74	0.21696645
182	0x3d0a0f69	0.033706103
183	0x3eaf9666	0.34294432
184	0x3e3aba0d	0.18235035
185	0x3de4a5a8	0.11164409
186	0xbe2df925	-0.16989572
187	0xbd8cd5ee	-0.06876741
188	0xbe2cf300	-0.16889572
189	0x3dcb5bb3	0.099295996
190	0x3e459df4	0.19298536
191	0x3bd4be48	0.00649241
192	0x3e849bb4	0.25900042
193	0xbe1b50f8	-0.15167606
194	0x3e29e298	0.16590345
195	0x3d805e1d	0.06267951
196	0xbe4011e6	-0.18756828
197	0x3dfcc1bf	0.12341642
198	0x3d902243	0.07037785
199	0x3e063410	0.13105798
200	0x3d9dc788	0.07704073
201	0xbe10626f	-0.1410005
202	0x3e4b649d	0.198626
203	0x3c70cdd7	0.014697514
204	0xbe5ba897	-0.2145103
205	0xbe0ad55e	-0.13557956
206	0xbbafcf62	-0.005365298
207	0x3d77ede0	0.06052959
208	0xbe857eab	-0.26073202
209	0x3b9b225b	0.00473432
210	0x3e1756e0	0.14779234
211	0xbdb53282	-0.08847524
212	0x3d3a8b76	0.045543157
213	0x3e66ad46	0.22527036
214	0x3d36277d	0.044471253
215	0xbd098b60	-0.033580184
216	0xbc9541a9	-0.018219786
217	0xbe7f3b43	-0.2492495
218	0x3e6b18d0	0.22958684
219	0x3e0ea384	0.13929564
220	0x3db75571	0.089518435
221	0x3dcd3f89	0.10021884
222	0xbd0e3101	-0.034714703
223	0xbe92cba4	-0.2867099
224	0x3e6c9f68	0.23107684
225	0xbd69b78e	-0.057059817
226	0xbc9db8c5	-0.019253144
227	0xbd4fd580	-0.05074072
228	0xbdee5c0d	-0.11638651
229	0x3cfaebad	0.030629957
230	0xbe5e8fb6	-0.21734509
231	0xbe51a1c6	-0.20471868
232	0x3e851387	0.2599146
233	0xbe0d5584	-0.13802153
234	0xbcb19f00	-0.021682262
235	0x3dfa34a4	0.12217072
236	0xbe52d8f6	-0.20590577
237	0x3dc93b91	0.098258145
238	0x3db76292	0.08954348
239	0xbd2be117	-0.04196271
240	0xbc239c81	-0.009986044
241	0x3d247b82	0.04015685
242	0xbcbdf6bd	-0.023188943
243	0x3e908ced	0.28232518
244	0xbe137f10	-0.14403939
245	0xbda88264	-0.08227995
246	0xbdd7d5c6	-0.10538821
247	0xbdb60e81	-0.08889485
248	0xbb990725	-0.004670041
249	0x3e24de0a	0.16100326
250	0xbcbf53e4	-0.023355432
251	0x3d972a89	0.0738116
252	0xbd18d8d9	-0.037316177
253	0xbe309926	-0.17245921
254	0xbdeec9fa	-0.11659618
255	0x3eb1ad68	0.3470261

bias f4 [10]
0	0x3d3ff267	0.046862032
1	0xbe8f8572	-0.28031498
2	0xbe33215c	-0.17493194
3	0x3e5a8a90	0.2134192
4	0x3e9e72ee	0.3094706
5	0xbe29dfbb	-0.16589253
6	0x3def0e57	0.11672657
7	0xbd1c240d	-0.03812032
8	0x3d4ec160	0.050477386
9	0x3d91ac6c	0.07112965
